Train shape:  (126680, 100) (126680, 5)
Test shape:  (31670, 100) (31670, 5)
Train shape:  (101344, 100) (101344, 5)
Validation shape:  (25336, 100) (25336, 5)

-------------------- Model Summary --------------------
Model: "sequential"
_________________________________________________________________
 Layer (type)                Output Shape              Param #   
=================================================================
 embedding (Embedding)       (None, 100, 100)          1000000   
                                                                 
 simple_rnn (SimpleRNN)      (None, 100, 100)          20100     
                                                                 
 simple_rnn_1 (SimpleRNN)    (None, 100, 100)          20100     
                                                                 
 simple_rnn_2 (SimpleRNN)    (None, 100, 100)          20100     
                                                                 
 simple_rnn_3 (SimpleRNN)    (None, 100)               20100     
                                                                 
 dense (Dense)               (None, 5)                 505       
                                                                 
=================================================================
Total params: 1,080,905
Trainable params: 1,080,905
Non-trainable params: 0
_________________________________________________________________


-------------------- Training --------------------
Epoch 1/10
3167/3167 [==============================] - 776s 243ms/step - loss: 1.2903 - accuracy: 0.5549 - val_loss: 1.2908 - val_accuracy: 0.5554
…
