
Train shape:  (126680, 100) (126680, 5)
Test shape:  (31670, 100) (31670, 5)
Train shape:  (101344, 100) (101344, 5)
Validation shape:  (25336, 100) (25336, 5)

-------------------- Model Summary --------------------
Model: "sequential"
_________________________________________________________________
 Layer (type)                Output Shape              Param #   
=================================================================
 embedding (Embedding)       (None, 100, 100)          1000000   
                                                                 
 flatten (Flatten)           (None, 10000)             0         
                                                                 
 dense (Dense)               (None, 128)               1280128   
                                                                 
 dense_1 (Dense)             (None, 64)                8256      
                                                                 
 dense_2 (Dense)             (None, 16)                1040      
                                                                 
 dense_3 (Dense)             (None, 5)                 85        
                                                                 
=================================================================
Total params: 2,289,509
Trainable params: 2,289,509
Non-trainable params: 0
_________________________________________________________________


-------------------- Training --------------------
Epoch 1/5
3167/3167 [==============================] - 45s 13ms/step - loss: 0.4893 - accuracy: 0.8269 - val_loss: 0.4174 - val_accuracy: 0.8554
…
